CannonRL 1.0/PPO_preTrained/CannonEnv-v0/PPO_CannonEnv-v0_0_0.pth (torch, 540983 bytes, 11 tensors)

actor.0.weight f4 [256, 2]
000000 9e 0b a3 3d f2 f1 c6 bd 3f d0 23 3f 1d 76 09 bf
       0.079612 -0.09714116 0.63989633 -0.5369585
000010 e0 96 50 3e 78 0e 04 3e 58 23 af 3d 52 be ed 3e
       0.20370054 0.12896144 0.08551663 0.46434265
000020 69 02 c7 bd 0b 88 36 3f 01 52 ca bd 31 5d 96 bd
       -0.097172566 0.71301335 -0.09878922 -0.073419936
000030 26 da 99 3e 66 7d a3 3e 2c b8 2b be 8e 1f f0 be
       0.30049247 0.3193161 -0.16769475 -0.46899074
000040 bf 78 1c 3f 0f 66 dc be 73 be 79 3d d3 2b bd be
       0.61121744 -0.43046615 0.060972642 -0.36947498
000050 a8 98 d6 3e c5 99 e2 be 95 0e df be 78 bc 5d 3e
       0.41913342 -0.44257942 -0.43565813 0.21653926
000060 b7 1c 1f 3f 02 96 c3 be 5f 26 a9 be ee 6c be 3e
       0.6215319 -0.38200384 -0.33037087 0.37192482
000070 94 d9 d9 be c6 f5 ad 3e 4a ec 33 bf c0 ae b5 bd
       -0.4254881 0.33976573 -0.70282423 -0.088712215
000080 4e 57 0b bf e9 3a d9 be 2e e0 21 3d 32 50 da be
       -0.5443009 -0.42427757 0.039520435 -0.4263931
000090 e0 63 df be 78 93 0c 3f f5 c9 00 3e f6 39 20 3f
       -0.43630886 0.5491252 0.1257704 0.6258844
0000a0 9d fa c2 be a0 22 06 bf da 42 1c bf e8 cc 42 be
       -0.38081828 -0.52396584 -0.6103951 -0.19023478
0000b0 43 36 04 3f e6 87 fc 3e 2f 2e 0b 3f 91 bf 0d 3f
       0.51645297 0.49322432 0.54367346 0.5537043
0000c0 93 e8 32 3f 7c 1c 70 be 3d 2a 03 3f 9f df a0 be
       0.6988613 -0.23448366 0.51236326 -0.3142061
0000d0 ce be 9d 3e 27 7b 2b 3f 7d 0a cd be 2d 68 0a 3f
       0.30809635 0.6698479 -0.40047064 0.5406521
0000e0 e0 02 b0 be 8a 7e 03 3f bd 81 90 be d1 db 45 3e
       -0.34377193 0.5136496 -0.28223982 0.19322135
0000f0 d3 4f 3c 3e f4 77 35 be 4f 14 fc be 90 34 37 bd
       0.18389826 -0.1772154 -0.49234244 -0.044727862
000100 68 7b 94 be 42 3b 9c 3e ca 9d 92 3e 5d 01 11 3f
       -0.29000401 0.3051396 0.28636009 0.56642705
000110 af fa d8 be 85 8d d4 3e f6 3e cf 3e 9a 05 ea be
       -0.42378756 0.4151422 0.40477723 -0.457074
000120 d6 3d 12 3e 91 c9 57 bf d6 55 e1 be e0 23 89 3e
       0.14281401 -0.8429194 -0.440108 0.26785183
000130 5a 7e 03 bf d9 7e 0a 3f be 89 9d 3e 71 8e 29 3f
       -0.5136467 0.54099804 0.3076915 0.66232973
000140 31 6f 82 be 90 34 1c 3e 22 92 c5 3e 3a 97 f8 3e
       -0.25475457 0.15254426 0.38588053 0.48552877
000150 18 1e 7d 3e d5 8d 21 3f a6 c5 c3 3e 93 1f e5 be
       0.24718511 0.63107044 0.3823673 -0.44750652
000160 52 0b f7 be b2 26 5e be 37 41 a7 be 8c 05 5a 3e
       -0.48250824 -0.21694449 -0.32666942 0.21291178
000170 1a 61 bb 3e ac 24 7a 3e 5a 85 cb 3e c8 f5 de 3d
       0.3659752 0.24428052 0.39750177 0.10886723
000180 1a 18 91 bd 80 60 04 3f 3c a8 12 3f af 90 25 bf
       -0.07084675 0.5170975 0.57287955 -0.64673895
000190 f2 c0 8c 3e e4 ff 02 be 26 ed db 3e c6 e3 c0 3e
       0.27490956 -0.12792927 0.42954367 0.37673777
0001a0 ed f6 74 bd 06 2a 27 be b1 69 0e bf ee 9d a1 3e
       -0.0598058 -0.16324624 -0.5563002 0.31565803
0001b0 fc e1 1d 3d db 0d 44 bf d4 01 69 3d 39 39 33 bf
       0.038545594 -0.7658364 0.05688651 -0.7000919
0001c0 bc 30 2a bd af b8 d6 3e 41 13 19 3f 04 76 16 bf
       -0.041550383 0.41937777 0.59795004 -0.5877383
0001d0 fe bc b8 3d f8 43 35 3f 6a c5 b8 3e f0 fc 5c bd
       0.090204224 0.7080684 0.36088115 -0.053952157
0001e0 de 2a 68 be da 7d 34 3e 9c a7 0d 3e 8e 20 d1 3e
       -0.22672603 0.17626134 0.13833469 0.4084515
0001f0 7c 70 17 3d dc c7 92 3e 6a 9f ba be 68 6b fa 3d
       0.036972508 0.28668106 -0.36449748 0.12227517
000200 50 59 2b 3d cf ba 63 bf 2f 24 aa be 35 05 d8 3e
       0.041833222 -0.8895692 -0.3323073 0.42191473
000210 0a c9 f6 be a0 c8 bf 3d 5c da ca 3d e3 f8 fb 3e
       -0.48200256 0.09364438 0.0990493 0.49213323
000220 a0 5d bc 3e 89 bb da be 7a 54 aa 3e c5 e3 8c be
       0.3679018 -0.42721203 0.33267576 -0.27517524
000230 02 f8 9f 3e 53 a7 2b 3f cc 97 04 3e e7 86 05 3f
       0.31243902 0.6705219 0.12948531 0.5215897
000240 c9 b4 14 3f 0e 22 77 be b1 fb 13 be 66 01 2e bf
       0.58088356 -0.24134085 -0.14451481 -0.67970884
000250 ca 1f 1d bf 48 ba bf bd e9 04 30 bf 98 f5 cf 3d
       -0.6137663 -0.09361702 -0.6875749 0.10154265
000260 fd f5 15 3f f8 5d 19 bf d1 2d 03 3f 2b 8c b6 be
       0.58578473 -0.5990901 0.51241785 -0.35653815
000270 1b 10 aa be 9e c8 01 3f ec eb 44 3e b3 3c 11 3f
       -0.33215412 0.5069674 0.19230622 0.56733245
000280 eb c8 8b 3e 10 00 4b be 3b 7b 1c 3f 61 08 de be
       0.27301726 -0.19824243 0.61125535 -0.43365768
000290 4b e3 01 3f 80 fc af 3b cc 4b 95 3d f4 4b fa be
       0.50737447 0.0053706765 0.07289848 -0.48886073
0002a0 c9 43 e3 be f6 13 9a be c2 7f 82 3e e6 6c a1 3e
       -0.44387653 -0.30093354 0.25488096 0.31528395
0002b0 a6 c7 14 be 15 cc dd 3d d1 ab b0 be b5 bf bb 3e
       -0.14529285 0.10829941 -0.34506086 0.36669698
0002c0 d4 09 2a be e8 bb b0 bd 43 4d 81 bd b7 df 02 3e
       -0.16605312 -0.0862959 -0.06313565 0.12780653
0002d0 38 4b 97 be 5c 93 ad 3e 63 13 12 bf 9a 25 27 3f
       -0.29549575 0.3390149 -0.5706083 0.6529175
0002e0 ec 78 63 3e 00 ce 59 bb 99 f4 0b bf 04 28 c8 be
       0.22214097 -0.0033234358 -0.546701 -0.3909303
0002f0 36 fd 34 bf 88 ed c4 bd 7e 5b af bc 6d eb df be
       -0.7069887 -0.09615618 -0.021405932 -0.43734303
000300 43 94 20 3f b8 5c 6c 3e 44 bd 2b be 54 8a 08 be
       0.6272623 0.23082244 -0.16771418 -0.13334018
000310 48 bf eb 3d ef 66 8c 3e 72 89 c4 3e 15 9b d0 be
       0.115110934 0.27422282 0.38386112 -0.40743318
000320 72 51 10 bf 04 d5 02 3e 46 54 b8 3e 49 5b 27 3f
       -0.56374276 0.12776572 0.36001796 0.65373665
000330 99 f9 80 be e0 0e b4 be 37 fe 03 3f 07 12 1e 3f
       -0.25190428 -0.351676 0.51559776 0.6174626
000340 67 06 0d 3f e7 04 0f 3f 25 de aa be 2b 4a 1d bf
       0.55087894 0.55866855 -0.33372608 -0.61441296
000350 ad dc 01 3e fd 85 74 bd d9 0a c8 be 36 9c a0 3e
       0.12681837 -0.059698094 -0.39070776 0.3136918
000360 02 e3 bb bd 75 a2 0e bf e3 2d 2a 3f 8f 5c 1d 3f
       -0.09174158 -0.5571664 0.6647627 0.6146936
000370 55 f6 48 bd d4 f3 0d bf c0 39 0c 3f 67 5f 2f bf
       -0.049063046 -0.5545018 0.5477562 -0.6850495
000380 9c e7 80 3e c2 9b b0 3e f4 c3 21 bf 42 f9 b9 3e
       0.25176704 0.34493834 -0.63189626 0.3632298
000390 14 66 ed 3e ba 03 0e bf c1 8e 4a be 06 af 09 3e
       0.46366942 -0.55474436 -0.19781019 0.13445672
0003a0 25 cb d7 bd e9 d9 27 bf da 27 f2 be 48 b0 aa bd
       -0.105367936 -0.6556688 -0.4729603 -0.08334404
0003b0 ee 4f e3 3e e8 29 76 3e a5 38 5e bd 69 f6 5c 3f
       0.4439692 0.24039423 -0.05425324 0.8631349
0003c0 98 22 16 3e a7 e7 25 3f df f9 0e 3f 25 8a f3 be
       0.14661634 0.648066 0.55850023 -0.47566333
0003d0 c9 7a e2 3d 3c cb 1b bf c2 10 1a bf 2b 82 92 be
       0.11058576 -0.60856986 -0.6018182 -0.28614935
0003e0 26 43 6e be 88 f4 42 3f a2 fc f3 be 2a 33 9d 3e
       -0.23267803 0.76154375 -0.4765368 0.30703098
0003f0 48 f2 21 3e ce 35 dc 3e 5a c8 fe bc e6 c3 92 be
       0.15815079 0.430098 -0.031101394 -0.28665084

actor.0.bias f4 [256]
000000 3c 07 9b 3e 58 cb 45 3e aa 50 b4 3e ef 9c e7 3e
       0.30278957 0.1931585 0.35217792 0.45236918
000010 7a e7 1c bf ce 8d 05 bf bc c6 cb be 84 bb 18 be
       -0.61290705 -0.521695 -0.3980006 -0.14915282
000020 7f b6 cf be 4d a5 1d 3f ac cf a6 3c 8f dd 29 3f
       -0.4056892 0.61580354 0.020362698 0.66353697
000030 1f ce b3 be 2f 0c 30 bf 9b 18 89 be 31 92 11 3f
       -0.35118195 -0.6876859 -0.26776585 0.56863695
000040 c0 8c b4 3c d9 65 8d bd 86 fc e3 bc 6d 25 96 3d
       0.022039771 -0.069041915 -0.027830373 0.07331357
000050 48 86 f3 bd 68 be 20 be a5 fc 06 bf 96 88 fc 3e
       -0.118908465 -0.15697634 -0.52729255 0.49322957
000060 c0 38 7b 3c a0 aa bf bc 48 03 4f 3e 7e 1b b3 be
       0.0153333545 -0.02339679 0.20216095 -0.34981912
000070 4c dd e2 be 92 d8 04 bf ea b5 41 3f d2 f5 f3 3e
       -0.4430946 -0.5189296 0.75668204 0.47648484
000080 35 02 ca 3e 40 24 8d be 3f 67 3a 3d ed b6 1e 3f
       0.3945481 -0.2756672 0.04550862 0.6199787
000090 e9 69 1f bf 2a fb e7 3e 95 12 2c 3f ae cc 79 be
       -0.6227098 0.4530881 0.67215854 -0.24394485
0000a0 6e 96 40 3e a8 7c c7 bd 30 c4 82 3e e1 4d 4c 3d
       0.18807384 -0.09740573 0.25540304 0.04987896
0000b0 3e c0 b2 3e 07 7a 17 3f df 14 93 be 20 de 46 3d
       0.34912294 0.59170574 -0.2872686 0.04855168
0000c0 dd 40 3c 3e e0 0c 32 bd 3a 06 c9 be f2 16 f5 3e
       0.18384118 -0.04346931 -0.39262563 0.47869068
0000d0 e4 55 6b be 5e 6f d2 3e 71 30 17 3f 11 f1 57 be
       -0.22981983 0.4110059 0.5905829 -0.21088053
0000e0 0d 66 30 bf 40 ba 51 3d 3d 52 f9 be 9c 20 50 be
       -0.6890572 0.051203012 -0.48695555 -0.2032494
0000f0 71 c9 e3 be 72 e6 fe 3e 13 5b 29 3f 00 1f 47 3b
       -0.44489625 0.4978519 0.66154593 0.0030383468
000100 0a f2 0a 3f ab a6 46 3e c2 c9 ae 3e f7 6d 0d bf
       0.5427557 0.19399516 0.34138304 -0.5524592
000110 01 45 a6 3e 70 00 33 be 40 e2 a2 bc 7c d3 53 3e
       0.3247452 -0.17480636 -0.019883275 0.20686144
000120 56 56 d8 3e b1 42 a4 3e ef 49 1b bf be 57 b1 3e
       0.4225337 0.32082132 -0.6065969 0.34637254
000130 1b 81 bd be b7 e3 18 3f 03 27 0d 3f cf 67 d1 be
       -0.37012562 0.59722465 0.5513765 -0.40899512
000140 e8 58 7c bd 88 10 2b bf af fb 8d be d9 d9 f3 bd
       -0.061608225 -0.668221 -0.27731082 -0.119067855
000150 ae 1c 34 bf c0 ea 32 3c 07 ba 24 bf 83 19 18 3f
       -0.7035626 0.010920227 -0.64346355 0.5941393
000160 d4 0d e8 be cb 92 8a be b5 54 a3 3d 27 42 a7 3d
       -0.4532305 -0.2706512 0.07975141 0.081669144
000170 9f 3c 02 bf 3e f2 dc be c0 bb ef be 85 ed bd 3e
       -0.5087375 -0.43153566 -0.4682293 0.37095276
000180 36 bf ee 3e a0 1a a4 bc 78 cd ef be 55 43 2f bf
       0.46630257 -0.020032227 -0.46836448 -0.68462116
000190 5c f3 1b bf c6 f4 0e bf fa 65 f0 be b0 7e f8 3d
       -0.6091821 -0.55842245 -0.46952802 0.12133539
0001a0 ca 86 de 3e 0c 19 60 3e 1f fc 2b bc 01 9a 17 bf
       0.4346221 0.21884555 -0.010497122 -0.59219366
0001b0 93 75 ea 3e 50 d0 b9 3d dd 4c 38 bf 1a 2d 4a 3e
       0.45792827 0.090729356 -0.71992284 0.19743767
0001c0 00 7f bc 3d 77 0d 29 bf 93 ad 31 3e 0e 41 f8 be
       0.09203911 -0.6603617 0.1735137 -0.48487133
0001d0 7a 35 0a 3f ee fb a7 3e 10 be be 3d 1e 3d 35 be
       0.5398785 0.32809395 0.09313595 -0.17699096
0001e0 0c ca 0c be e0 21 b6 3c 45 c8 60 be 92 3d ad 3e
       -0.1374895 0.02223295 -0.21951397 0.33836037
0001f0 26 0c 29 3f 50 4e 35 bd 0e 33 c2 3e 3a e3 ba 3e
       0.6603416 -0.044264138 0.37929577 0.36501485
000200 87 cc af be 2f 17 0d bf 58 16 88 be 00 c6 43 bc
       -0.3433573 -0.551135 -0.26579547 -0.011949062
000210 d2 be 27 bf 2e 6e c0 3e 58 4c 80 3d dd 78 74 3e
       -0.65525544 0.3758406 0.062645614 0.2387423
000220 c2 f9 f7 3e c0 c8 d8 be f8 a2 70 3e 20 43 36 be
       0.48432738 -0.4234066 0.23499668 -0.17799044
000230 28 2a 2d 3f c0 c2 9d bc 0a a4 fa 3e 38 82 b9 bd
       0.6764245 -0.019257903 0.48953277 -0.090580404
000240 b6 0c 41 ba e0 ba 03 3f 9f 05 23 3f 89 c6 18 bf
       -0.000736426 0.51457024 0.6368045 -0.5967794
000250 3d ea 30 bf f8 ff 57 3e fe 10 dc 3e 40 46 30 bf
       -0.6910742 0.21093738 0.42981714 -0.68857193
000260 e3 26 01 bf e9 4a a2 be da 9f de 3e c8 be 04 bf
       -0.5044996 -0.31697777 0.43481332 -0.5185361
000270 f7 97 23 3f c0 24 6f bd 43 f8 04 3f 65 fd af 3e
       0.63903755 -0.058384657 0.5194132 0.34373012
000280 0e b5 9b 3e 96 9b 7a 3d 5a ce a2 be ad ef 20 bf
       0.3041157 0.061183535 -0.3179806 -0.62865716
000290 75 7d f8 be ca dd 0b bf d6 f7 74 be 20 ad 37 3d
       -0.48533216 -0.546353 -0.23922667 0.04484284
0002a0 fe 0f cd be 2e c4 b8 3e 7d 81 00 3f 00 60 a3 39
       -0.40051264 0.36087173 0.50197583 0.00031161308
0002b0 fc 04 b5 3d 63 d0 3c be 67 1d 86 be f0 c0 3b bd
       0.08838841 -0.18438868 -0.26194307 -0.045838296
0002c0 66 3e e3 3e dd 75 0e 3f 9b 8b f9 be a7 9c 24 3f
       0.44383544 0.55648595 -0.48739323 0.6430153
0002d0 ad 29 bd be 60 2f 0f 3d 49 4f 99 3e 2a c4 e1 bd
       -0.3694586 0.03495729 0.29943302 -0.110237435
0002e0 0a 09 fc be dc c5 0d bf 7a 99 97 3e 76 15 8c be
       -0.49225646 -0.55380034 0.2960928 -0.27360123
0002f0 bc c6 b5 3e c6 39 03 bf 59 c6 75 bd 76 ab a8 3e
       0.35503185 -0.5126003 -0.060003612 0.32943314
000300 a7 8d 20 bf f4 49 50 3e b2 64 b4 3e ea bb a6 be
       -0.62716144 0.20340711 0.35233074 -0.32565242
000310 5b fc e6 be 6c de 00 bf 8d 0a 6b be d9 9e d8 be
       -0.45114407 -0.5033939 -0.22953244 -0.4230869
000320 66 b7 df 3e 11 21 98 be f0 d3 86 be e6 d2 92 3e
       0.4369461 -0.29712728 -0.2633357 0.28676528
000330 c8 7a eb bd 1c d1 24 3f 71 23 0c 3f ab 86 96 3e
       -0.11498028 0.64381576 0.5474158 0.29399619
000340 60 51 c0 bc 69 ea 16 bf 47 00 31 be 2c 4e 09 3f
       -0.023476303 -0.5895143 -0.17285262 0.53634906
000350 2e 40 8d 3e ec 10 10 bf a0 5a 67 3d a7 d7 ee 3e
       0.27588028 -0.5627582 0.05648291 0.46648905
000360 38 5f 1b bf 20 24 7c 3d 7f a1 11 bf 60 0c 81 bc
       -0.6069217 0.06155789 -0.5688705 -0.015752971
000370 48 34 ef 3d 32 17 d6 be 9c 62 7d 3e e5 14 22 3f
       0.11679894 -0.41814572 0.24744648 0.6331313
000380 f6 ee c6 be f4 7a 79 3e 72 11 a6 be c9 18 88 3e
       -0.38854188 0.24363309 -0.32435185 0.2658141
000390 61 31 06 bf 89 50 00 bf 50 87 dc 3d a8 c7 92 3d
       -0.52419096 -0.50122887 0.10767996 0.07166988
0003a0 9c 05 60 3e 24 36 34 3e 89 60 16 3f fc d2 0f be
       0.2187714 0.17598778 0.5874105 -0.14045328
0003b0 f5 c2 20 bf 24 25 12 bf a1 29 2f bf d9 f4 11 bf
       -0.6279748 -0.5708792 -0.68422896 -0.5701423
0003c0 68 e8 ff be 7c 5c 17 bf 78 5c 05 3e 26 d8 26 bf
       -0.49982 -0.59125495 0.13023555 -0.65173566
0003d0 56 c0 b4 3e 0a 66 ed be 1a eb de 3e 1e 70 fa be
       0.3530299 -0.46366912 0.43538743 -0.48913664
0003e0 47 3d 2e 3f be 3e e3 3e f6 af cd 3e 97 99 05 bf
       0.6806225 0.44383806 0.4017331 -0.52187485
0003f0 00 90 ca ba 9e 47 70 be 0d b2 1c bf 9e 50 29 3d
       -0.0015454292 -0.2346482 -0.61209184 0.04133665

actor.3.weight f4 [256, 256]
000000 d9 31 bd bc 14 21 99 bd fe 50 93 bd 6e 3c 85 bd
       -0.023095058 -0.07477012 -0.071931824 -0.06505667
000010 34 f2 54 3d 4f eb 6c 3d 64 39 e4 bc 60 fe 18 3d
       0.051988795 0.057841595 -0.027859397 0.037351966
000020 b3 98 a7 bc 88 f9 b2 bd 0a 5e 88 bd a4 a1 9e 3c
       -0.020458555 -0.087390006 -0.066585615 0.019364186
000030 5b 04 75 bd 9b 84 a1 3a eb 76 b2 3c a5 7b b6 3d
       -0.059818607 0.0012322845 0.02178522 0.08910302
000040 f9 14 36 3d 9b 56 e8 bd 8a 0a c8 3b cf 98 8b bb
       0.044453595 -0.11344644 0.006104772 -0.0042601596
000050 ba 76 ae 3d 7f 69 ca 3d 34 44 af 3b 6b c5 85 bd
       0.08518739 0.09883403 0.0053487066 -0.06531795
000060 c3 d5 cc bd 5a f0 b1 3b 3c 0e 18 bd dd 19 e1 bb
       -0.10001709 0.0054302635 -0.03712295 -0.006869538
000070 e9 11 89 3d 79 e1 3f 3d 67 c5 b4 bc 62 24 67 3d
       0.06692869 0.046845887 -0.022066785 0.05643118
000080 5d 93 98 3d 8d d9 ab bc ef fe 1c 3b 2b 9c 10 bd
       0.07449982 -0.02097776 0.0023955663 -0.035305183
000090 ef 55 ba bd 48 62 9a 3d 41 74 e7 3c 08 1f c9 bd
       -0.09098422 0.07538277 0.028253676 -0.09820372
0000a0 da ae 98 3d 4d 90 96 bd bd d6 c3 bd 44 26 25 bc
       0.07455225 -0.07351742 -0.095624425 -0.010079924
0000b0 ce 9a df 3d 0b d7 37 3c b2 31 b3 bd a1 bf b0 bd
       0.109181985 0.011220704 -0.08749713 -0.086303
0000c0 eb 78 b7 3d 05 38 ed bd f0 5b c3 bd 75 83 ca bd
       0.0895861 -0.115829505 -0.0953902 -0.09888355
0000d0 a0 6f 60 3d 62 83 a3 3c 4b fe e7 bd c2 b2 58 3b
       0.054793954 0.01996011 -0.113277994 0.0033065532
0000e0 4e 3e 4f 3d 10 87 33 bd 04 75 46 3d 9e 48 e5 bc
       0.050596528 -0.043829978 0.04845144 -0.027988728
0000f0 74 9b 50 3d c6 24 85 bc 47 a6 cc bd 27 1e e2 3c
       0.0509295 -0.016252887 -0.099926524 0.027602268
000100 3b 90 e5 bd 51 14 a4 3c f7 0c d2 3d 91 d9 43 bd
       -0.112091504 0.020029219 0.10256379 -0.04781491
000110 fb f2 ce bd 03 ab 2e bd ad 5f b5 bc 00 20 e9 bd
       -0.101049386 -0.04264356 -0.022140348 -0.11383057
000120 92 1e 98 bc 3f dc ad 3d 34 8a 0e bb ef 63 da 3d
       -0.018569265 0.08489274 -0.0021749856 0.10663592
000130 70 95 e5 bc da 32 ef bc 32 42 b1 3d 84 c5 9a bc
       -0.028025359 -0.029199053 0.08655204 -0.01889301
000140 4a e0 bd bd 68 83 8f bb af 61 3e bd ba 8a 7b bc
       -0.09271295 -0.0043796785 -0.046479877 -0.015352899
000150 9c 62 00 3b 01 9a 73 bd 67 0a 15 3d f5 7a 97 3d
       0.0019590026 -0.05947304 0.036386874 0.07396499
000160 76 70 97 3d 6f c4 cf bb 87 d4 ce 39 3d 12 2d 3c
       0.07394497 -0.0063405554 0.00039449727 0.01056343
000170 a2 c4 21 bd ad 7a b6 3d 48 25 9c 3c ed 00 e2 bd
       -0.039494164 0.08910117 0.019060746 -0.11035333
000180 ed fc bd bb 8f e0 d1 3d 3a b6 8a bd b6 c9 c3 bd
       -0.0057979734 0.10247909 -0.06773038 -0.09559958
000190 c6 9e cb 3d 9b 43 a0 bd 29 6c 76 3d bc 58 07 3c
       0.09942393 -0.07825395 0.060161743 0.008260902
0001a0 90 bd 88 bb c7 ff 12 3d 47 df 52 3b 5d e9 ae 3d
       -0.0041729882 0.03588846 0.003217654 0.08540604
0001b0 0e e0 01 3d 19 69 fb bc 2f b7 26 bd 27 db a1 bd
       0.031707816 -0.030689763 -0.04070204 -0.07903128
0001c0 33 b0 bf bd c8 ad c4 3d 7f e2 04 bd 92 a0 bd 3d
       -0.09359779 0.09603459 -0.032442566 0.09259142
0001d0 89 f6 ed bb 30 3d 85 3c 96 52 43 bd a5 df 01 3d
       -0.0072620553 0.016264528 -0.047686182 0.031707425
0001e0 55 df 80 bd 10 7b 29 bd b8 ad ab bd 08 ab ae 3c
       -0.06292597 -0.041377127 -0.083827436 0.021321788
0001f0 41 fe e7 3c 6b 1e 24 3d b8 00 ba bd 57 c0 21 bc
       0.02831948 0.04006807 -0.09082168 -0.009872518
000200 6c 91 1e 3d 2b f0 d0 3d 6f 52 3d 3b c4 be a2 3d
       0.038712904 0.102020584 0.0028888246 0.07946542
000210 e1 f8 83 3d 5f 7a 5b 3d d1 83 07 3d e6 50 ec 3d
       0.06443954 0.0535835 0.033084694 0.11538868
000220 3c 74 b2 bc 0c 77 6b 3d a2 2e 1a 3d 3a 4a 87 bc
       -0.02178394 0.05748658 0.03764213 -0.016514886
000230 2c 39 84 bd 6d 4f a6 3d c6 26 d8 bd 11 04 8b bd
       -0.06456217 0.08120618 -0.105542704 -0.06787885
000240 66 c6 ea 3b 4a 88 84 3d a8 29 51 bc 84 2b 14 3d
       0.007164764 0.064713076 -0.012766279 0.036174312
000250 41 a6 13 3d 7b dc e5 bc e1 7e d5 ba f6 ba 62 bc
       0.036047224 -0.028059235 -0.0016288423 -0.01383852
000260 55 1f cd 3b 1b 5a e7 bd dc c0 fb 3c e8 bf 26 3c
       0.0062598386 -0.11296483 0.030731611 0.01017759
000270 c1 7a 97 bc 6b c3 21 bc 12 e1 a7 3d 3d 8e 87 3d
       -0.01849115 -0.009873251 0.08197226 0.06618927
000280 59 e4 25 bd 72 3b 97 3d 34 8a cc bc 54 d0 d4 3d
       -0.040500972 0.07384385 -0.024968244 0.10391298
000290 11 6d 54 bd 51 a7 e7 3d 5c 68 c8 3d 3b 2c e9 3c
       -0.051861826 0.1131121 0.0978553 0.028463474
0002a0 0b 8f 62 3d 4e ba a6 3d 46 6f a0 bd 8c d7 ec bd
       0.055312198 0.081410035 -0.07833724 -0.1156455
0002b0 4b 6d 21 3d 5c 33 75 bd 58 c3 93 3d 36 a3 91 bd
       0.03941087 -0.059863433 0.07214993 -0.07111208
0002c0 c2 21 24 3c e8 5b 55 bd ec 53 c2 3d 52 56 9d 3d
       0.010017814 -0.0520896 0.09488663 0.0768248
0002d0 0b dc 82 3a 71 d1 b0 3d b6 fa d1 3d f5 79 c4 bc
       0.0009983791 0.08633698 0.102528974 -0.023983935
0002e0 0d 38 7f 3d 1e 97 9a 3b 67 63 85 bd 78 ae 22 bd
       0.062309314 0.0047177216 -0.065131 -0.039717168
0002f0 a9 85 02 3b d0 76 b8 3d 24 b3 c7 bc 07 bb b0 bd
       0.0019916093 0.09007037 -0.024377413 -0.08629423
000300 14 4d 9a bd 09 50 da bb d5 b5 d1 bd 72 4d f6 bc
       -0.07534233 -0.006662373 -0.1023976 -0.030066226
000310 3a 76 7c 3b 91 53 26 bb 2f 02 57 3d d8 a0 4a bd
       0.0038522617 -0.00253794 0.052492317 -0.0494698
000320 6f bd 00 bc 33 79 a2 3d ec 8f d8 3d 2a 67 d6 bc
       -0.0078576645 0.07933273 0.10574326 -0.02617224
000330 a0 cc 83 3d 83 d5 9d 3b 35 bf 0c 3c 9d 87 ce 3b
       0.064355135 0.0048167123 0.008590509 0.0063027875
000340 c3 ab 68 3d 1e c4 4d 3d 06 26 8b 3d a7 9e 83 3d
       0.05680443 0.05023586 0.06794362 0.06426745
000350 b6 17 e8 bd b2 72 00 bd 75 96 14 bd 54 a5 55 bc
       -0.113326475 -0.031359382 -0.0362763 -0.013039906
000360 7f 04 df bd 24 7f 9d 3b 20 da 5c bd 9a 89 90 3d
       -0.108895294 0.004806416 -0.053918958 0.070574954
000370 24 69 6b 3d 23 39 fe 3c 9b 14 2e 3d 78 b6 0f 3d
       0.057473317 0.031033104 0.04250012 0.035086125
000380 ff f4 5f bd 58 02 a2 3c 12 c8 02 bd c8 5c 7e bd
       -0.054677006 0.019776508 -0.031929083 -0.0621002
000390 19 0d 0a bd 0c bd 90 3d a2 85 0f 3d 32 78 94 bd
       -0.033703897 0.07067308 0.03503955 -0.07249488
0003a0 bb 10 b6 bc 71 8f 46 3d 30 47 b3 bd 03 b0 8a 3d
       -0.022224775 0.04847664 -0.08753812 0.06771853
0003b0 56 8a d4 bb 11 47 96 3d 4c 9a 50 3d da 3c 17 3d
       -0.0064862175 0.073377736 0.0509284 0.036923267
0003c0 95 2f 9a bc 51 74 be 3d 83 3d ff bb 5d 31 9a 3d
       -0.018821517 0.09299529 -0.007789315 0.075289465
0003d0 ea 50 80 bd 4e d2 d6 bd 7b 56 d0 bd e8 d5 0b 3d
       -0.06265433 -0.10489331 -0.10172745 0.034139544
0003e0 9a d1 93 3c 4b 77 47 bd bf 64 ba bd be f1 a1 3b
       0.018044282 -0.04869775 -0.09101247 0.004942148
0003f0 9c 22 9e bb 53 8e c0 3b a2 93 a2 3d 69 5f 4d 3c
       -0.004825903 0.0058763414 0.07938315 0.012534955

actor.3.bias f4 [256]
000000 2a 32 9e bd 9c 8d e3 bb 79 62 3d bd 2f 9c be bc
       -0.07724412 -0.0069443714 -0.04623649 -0.023267834
000010 1c 47 37 3d 32 74 ac 3d c2 e4 e4 3d 3a 79 8d bd
       0.04474555 0.084206 0.111764446 -0.06907888
000020 d2 03 99 3d c8 7d 69 3b b7 8d 3b 3d b0 35 53 bc
       0.07471432 0.003562795 0.045789447 -0.012891218
000030 ca 66 95 3d 3c de 32 3d e8 bc de 3d b7 1d b8 bd
       0.07294996 0.04366897 0.10875875 -0.08990043
000040 77 83 97 3d 28 da c1 3d 3e b7 28 3d 24 42 bb 3b
       0.07398122 0.09465438 0.04119038 0.0057146717
000050 4c fc 00 3d a5 bc 9f 3d 84 e7 53 3d de d0 cd bd
       0.03149061 0.07799653 0.051734462 -0.10049604
000060 f9 0e cc bb b3 53 2d bd 78 42 bb bb 18 c4 ce ba
       -0.006227371 -0.04231615 -0.005714711 -0.0015774993
000070 7e 05 3a bd 65 2a c2 bc 7a 1b 3c bd 23 23 0f 3d
       -0.045415394 -0.023701856 -0.04592464 0.03494562
000080 f4 50 3a bd f2 4e b5 bd 43 2a 55 bd 48 98 ff 3d
       -0.04548736 -0.08852948 -0.052042257 0.12480217
000090 bd 92 cf bd d9 54 ea bd 5e 2a ed bc b1 24 64 3c
       -0.1013541 -0.11441965 -0.028950866 0.013924764
0000a0 11 a9 73 3d e2 1d 28 3c 0c 0f ae bd 73 20 30 bc
       0.059487406 0.010261031 -0.08498964 -0.010749924
0000b0 45 6f f6 bb b5 b6 f0 bc c3 79 ac bc 47 14 eb bc
       -0.0075205886 -0.029383997 -0.021054154 -0.028696192
0000c0 a1 5e c7 3d 89 79 77 3d fe 59 e6 3d 5c d5 c5 3d
       0.09734846 0.06041864 0.112476334 0.09659836
0000d0 42 0f 78 bc 2a 97 f7 3d 59 d8 ca bd 7f 5c c8 bd
       -0.0151403565 0.12089379 -0.09904546 -0.09783267
0000e0 06 53 bc 3d 81 1a 8c bd ff 0c b1 3d 85 11 6d 3b
       0.09195523 -0.06840993 0.08645057 0.0036173773
0000f0 0c bc 8c 3b 83 de d4 bb 32 b5 ca 3d 52 92 9e 3d
       0.004294878 -0.006496252 0.098978415 0.07742752
000100 85 e6 95 ba f7 77 6a bd 42 b5 c6 3d c1 12 12 3d
       -0.0011436498 -0.057243314 0.09702541 0.035662416
000110 dc b0 8a 3c 38 c2 80 bd 9c e0 e7 3d 3f e5 e3 bd
       0.016930036 -0.06287044 0.11322138 -0.111277096
000120 63 81 de bd 6f 10 61 3d f3 8a 08 bb e3 f1 91 bd
       -0.10864522 0.054947313 -0.0020834773 -0.07126214
000130 f4 26 b9 3d ac e3 18 3d 02 c7 c7 bd 4f ea ca bd
       0.09040633 0.0373265 -0.097547546 -0.09907972
000140 97 50 e8 bd 89 e1 30 3c d8 73 93 bc 0c c9 f6 3c
       -0.11343496 0.010795959 -0.017999575 0.030125163
000150 b5 cd 99 3c 12 b2 1b 3d 03 0d d3 bc c4 f5 05 be
       0.018774847 0.038011618 -0.02576304 -0.13082033
000160 28 16 c2 3d 82 ff d4 3d 8f c3 9f 3d 0a 7a af 3d
       0.09476882 0.10400297 0.07800972 0.08568199
000170 d5 b3 e2 3d 7b cc b2 bd 32 5b 6d 3d 43 1c 2c bd
       0.110694565 -0.08730408 0.0579483 -0.04201914
000180 1a 9b 1a bd 87 a0 e5 3a 3b 36 ed 3b 60 39 e9 bd
       -0.037745573 0.0017519154 0.007239131 -0.113878965
000190 96 d2 38 bb 90 1a 49 3c 28 c1 0b bc 83 34 84 bd
       -0.002820169 0.012274399 -0.008529939 -0.06455328
0001a0 98 e5 de 3d 22 08 67 3c 21 ce 9f 3b 58 e5 be bd
       0.10883635 0.01410106 0.0048768674 -0.093210876
0001b0 63 e4 fa b9 b8 a4 82 bd 14 cd 57 3d 87 30 97 3d
       -0.00047853877 -0.06379074 0.052685812 0.07382303
0001c0 6f 3f ec bc c9 df e1 3c 59 e1 7f 3d e1 96 e2 3d
       -0.028838841 0.02757253 0.062470768 0.11063934
0001d0 fb 28 1a 3d 79 b2 07 3c a7 b4 aa 3d 16 6f 71 3c
       0.03763674 0.008282297 0.08335238 0.014735958
0001e0 0b a5 a3 bd f2 18 72 bd a8 67 14 3d 82 2e 62 3a
       -0.07990464 -0.05910582 0.036231667 0.0008628146
0001f0 c9 cc 26 bc 93 87 b9 3c 89 07 9e 3d 62 58 12 3d
       -0.0101806605 0.022647655 0.07716281 0.03572882
000200 07 a5 91 3d 8f c3 db bd d0 5f bb bd a3 18 4f bd
       0.071115546 -0.10730659 -0.09149134 -0.050560605
000210 94 c5 9c 3d 5a 4a 52 3d fa 68 9b bc 87 41 cb bd
       0.076548725 0.05134044 -0.018970955 -0.09924608
000220 e9 dc 73 bd ef bd ef 3b 28 3d 85 bc ff 28 c5 ba
       -0.05953685 0.007316343 -0.016264513 -0.0015042125
000230 f8 b0 a7 3d 7b 2f 57 bd bb e7 93 bd 52 50 c8 3b
       0.08188051 -0.052535515 -0.072219335 0.0061130906
000240 cc 49 0b 3d 24 29 a4 3c 92 f0 1d bd e2 55 1e bd
       0.034005925 0.020039149 -0.038559504 -0.038656123
000250 fe 43 cc 3d d5 0b 38 bd 1b 8c bd 3d a1 39 42 3d
       0.09973906 -0.04493316 0.092552386 0.04741824
000260 2f 7f ea 3d 49 d0 71 bd c4 54 d3 bc 3d 5e 08 bc
       0.114500396 -0.059036527 -0.025797255 -0.008323249
000270 7d 9a e9 3c 4b c1 9a 3d 6a ee b2 bd e8 f7 1b 3d
       0.028516049 0.07556399 -0.0873688 0.03807822
000280 98 7b 07 3c 05 4f 09 bb f6 47 a7 3d 4f 4d 09 3d
       0.008269213 -0.002095164 0.08168022 0.033520993
000290 2a 23 ee bd 3a 77 ec bd d7 43 76 bc 39 f8 66 3b
       -0.11627801 -0.11546178 -0.015030823 0.0035243167
0002a0 c6 e2 9c 3d 82 28 a2 bd 1a d5 3c bc 97 8a 1f 3d
       0.07660441 -0.079178825 -0.011525417 0.03895053
0002b0 b4 20 23 bd b4 9b 87 bd 92 87 a4 3a 0c 4a c1 bd
       -0.03982611 -0.06621495 0.001255261 -0.094379514
0002c0 a3 c9 6d bd 94 07 db 3d 18 f3 2b bc 3e ba 77 3d
       -0.058053624 0.10694805 -0.01049497 0.06048035
0002d0 08 e3 dd 3d 5f 38 e1 bd d8 f7 b1 3d 49 52 95 3d
       0.108343184 -0.1099708 0.086898506 0.07291085
0002e0 9e f3 af bd ab 86 d9 bd f2 e7 a7 3d d1 6e b1 3c
       -0.08591388 -0.10621389 0.08198537 0.021659287
0002f0 7e bd 93 bc cb 0f da bd 93 e4 2a 3d 3c b7 15 bd
       -0.018034693 -0.106475435 0.04172189 -0.0365517
000300 f5 94 c4 bd ac cc 30 bd eb c3 50 bc 2e 20 df 3d
       -0.09598724 -0.04316394 -0.012742023 0.1089481
000310 59 6a 60 bd 38 a8 05 bc ff bd c4 3c 20 6f a5 bd
       -0.05478892 -0.008157782 0.024016378 -0.08077836
000320 5e 29 6e bb fa 5f ee bd 31 ea 4a bd a9 3a 88 bd
       -0.0036340575 -0.116394 -0.04953975 -0.066518135
000330 df 8f 56 3d 28 4f 6f ba cd e2 92 3c be 92 61 3c
       0.0523833 -0.00091289217 0.017930413 0.013767896
000340 58 11 25 bb bd e3 d6 3d 91 d1 a1 3d 23 b2 b5 ba
       -0.002518734 0.104926564 0.079013 -0.0013862293
000350 12 25 69 bc e8 63 c8 bc b5 64 e9 bd 56 ea ad 3d
       -0.01423003 -0.024461702 -0.113961615 0.08491962
000360 38 0e e7 bd f7 c9 b2 bd c1 16 dd 3d a5 fc 6e bb
       -0.11282009 -0.08729928 0.107953556 -0.0036466506
000370 63 8f 23 3d 6f 15 b7 3b d5 a1 b5 3d 6c 06 b6 3d
       0.039931666 0.005587272 0.08868758 0.088879436
000380 1e 6b b5 bd d1 1d cd bd ff 2f 84 bd 98 1f a9 3d
       -0.088583216 -0.10015453 -0.06454467 0.08257979
000390 b1 ae aa bd 69 34 3d bd e0 26 cc bd 5e 5a bc bd
       -0.08334101 -0.04619256 -0.09968352 -0.09196924
0003a0 62 22 93 bd d6 97 86 3d c6 5f 2f bd 52 5f 3c 3c
       -0.071842924 0.06571929 -0.042815946 0.0114973355
0003b0 41 27 88 bd 8a 66 16 3d 30 8c 1b 3d c9 9b e2 bb
       -0.06648112 0.036718883 0.03797549 -0.0069155437
0003c0 70 a3 5d bd ee 38 3c 3c c9 da bd bd 8d 57 4e bd
       -0.054110944 0.0114881825 -0.092702456 -0.050376464
0003d0 10 40 27 bc 0d 68 32 3d ae 74 99 bd 85 45 da bd
       -0.010208145 0.04355626 -0.07492958 -0.10657791
0003e0 2e 11 f8 3a 8c f1 33 bc c2 4c 4e ba ac 3d 8e 3d
       0.0018926018 -0.010982882 -0.0007869714 0.06945357
0003f0 f0 e7 cd 3c 8f 8a b8 3c 8c ca 3c bd 95 c1 d6 3c
       0.02513501 0.022527007 -0.0460916 0.026215354

actor.6.weight f4 [3, 256]
000000 86 99 0d 3e 7f 17 35 be 16 32 38 3e 3b 38 23 3e
       0.13828096 -0.17684744 0.17987856 0.15939419
000010 1f 29 c9 bd ba 80 4e be 68 dd fc bd b3 8b 45 3e
       -0.09822296 -0.20166293 -0.123469174 0.19291572
000020 7f 0a f1 bd 73 6d 23 be 47 00 c1 bd 55 e3 32 3e
       -0.1176958 -0.1595972 -0.09423881 0.17469533
000030 72 7a 1d be 11 d6 10 be 67 b2 3b be 3b 20 9a 3d
       -0.1537874 -0.1414416 -0.18329774 0.07525679
000040 ed 75 13 be 9a a8 50 be f8 3a 58 be 3d b5 48 be
       -0.14400454 -0.20376816 -0.21116245 -0.19600387
000050 4e 55 5e be 7b e3 b7 bd 60 5d 4d be ed 1a 35 3e
       -0.21712229 -0.08978935 -0.20055151 0.17686053
000060 23 bb 09 be c3 a0 84 3e da e6 3d 3e 2e aa 5c 3e
       -0.13450293 0.259039 0.18545094 0.21549293
000070 62 9f c9 3d ee 6b 5a 3e 2a 6d 13 3e ec ff 0f be
       0.09844853 0.21330234 0.14397112 -0.1406247
000080 04 b8 88 3d ac e4 7c 3e 37 02 45 3e 2f 54 5d be
       0.06675723 0.24696606 0.19239126 -0.21614145
000090 a6 ce 80 3e 85 55 53 3e 14 bc 43 3e 14 a6 be bd
       0.2515766 0.20638092 0.19114715 -0.09309021
0000a0 d0 04 2b be 5d 9a 40 be 90 d0 6d 3e b5 23 59 3e
       -0.16701055 -0.18808885 0.23224092 0.21205027
0000b0 d3 1f 59 be dc 70 13 3e c1 38 3a 3e 4f d1 26 3e
       -0.21203546 0.14398521 0.18185712 0.16290782
0000c0 d7 38 88 be f3 06 8a bd 48 73 21 be d5 ce 4a be
       -0.26605865 -0.06739607 -0.15766633 -0.19805463
0000d0 1b 65 98 3e 10 0d 2b be 17 22 5d 3e fb 70 71 3e
       0.29764637 -0.16704202 0.21595035 0.23578255
0000e0 b0 94 1c be be 7d 44 3e 68 c2 28 be 27 cf 70 be
       -0.15291095 0.19188592 -0.1648041 -0.23516522
0000f0 35 42 8c be f2 61 02 3e ae f1 81 be ad 01 05 be
       -0.27394262 0.12732676 -0.253797 -0.1298892
000100 4d f8 70 be 32 87 8a 3d 0b f9 fe bd 83 5f 54 be
       -0.23532219 0.06764068 -0.12449845 -0.2073956
000110 35 17 2a be 73 31 59 3e 52 eb 1f be 5b 28 29 3e
       -0.16610415 0.2121027 -0.15617111 0.165193
000120 8f e6 62 3e 9e 2a 44 be 02 36 51 be 95 f0 31 3e
       0.22158264 -0.19156882 -0.20430759 0.17376931
000130 c4 b3 6b be 88 8f 3e be 08 4d 56 3e 9c c2 81 3e
       -0.23017794 -0.1860944 0.20927823 0.25343788
000140 e0 06 12 3e de 2c 41 be 24 cc d5 3d 59 f7 8d be
       0.14260435 -0.18864772 0.10439327 -0.27727774
000150 06 31 47 be 40 0c 21 be a5 b0 6f 3e b4 bb 0b 3d
       -0.19452295 -0.15727329 0.23407228 0.034114555
000160 14 29 8e be ed 42 3b be 13 bf 6f be cc 15 3e be
       -0.27765715 -0.18287249 -0.23412733 -0.18563002
000170 ff 11 74 be f3 33 f6 3d ca 36 81 be 71 f6 5f 3e
       -0.2383499 0.12021627 -0.25237113 0.21871354
000180 e1 89 12 3e 5c b8 3e 3e 92 53 ea 3d d5 00 fc 3d
       0.14310409 0.18625015 0.11441721 0.12304846
000190 93 eb 4e 3e 7d 52 59 be 39 b3 86 3e 29 7d 45 3e
       0.20207052 -0.21222873 0.2630861 0.19286026
0001a0 20 94 83 be aa d6 5b be d7 36 78 be f7 1a 94 3e
       -0.25698948 -0.21468607 -0.2423967 0.28926823
0001b0 6a 53 43 3e cc 97 8c 3d af 81 59 be d9 4f 18 be
       0.19074789 0.068648905 -0.21240877 -0.1487421
0001c0 b3 d1 58 3e 7d 67 60 be 73 dd f8 bd 00 c8 db bd
       0.21173744 -0.21914478 -0.12151613 -0.10731506
0001d0 05 31 d3 bd 7a d4 3b be b6 d2 92 be 46 84 56 be
       -0.10312084 -0.18342772 -0.28676385 -0.20948896
0001e0 15 0c 53 3e e5 5a 72 3e 33 7d 56 be 5d cc 52 3e
       0.20610078 0.23667486 -0.20946197 0.20585771
0001f0 67 4c 43 3e 48 ce 40 be be 2c 3c be c1 a1 56 be
       0.19072114 -0.1882869 -0.18376443 -0.20960142
000200 72 84 2f be bc 88 2e 3e 4f e6 04 3e 30 08 33 3e
       -0.17140368 0.17044348 0.12978481 0.17483592
000210 1e 68 e7 bd 92 85 45 be 61 23 5c 3e 77 ac 7d 3e
       -0.11299156 -0.19289234 0.21497871 0.24772821
000220 cf 42 1f 3e b7 d2 85 3e ac b1 40 3e 37 03 13 be
       0.15552829 0.26137325 0.18817776 -0.14356695
000230 ca 88 0e be 48 ca 81 3e ee 42 34 3e e4 cb 15 3e
       -0.13919368 0.2534964 0.17603657 0.1462856
000240 1a 8c 03 be 0e ab 3f be dc 4a 1f 3e b0 8f 06 3e
       -0.12846413 -0.18717596 0.155559 0.1314075
000250 e7 64 28 be de 6f 31 3e 90 f8 44 be 8e 23 84 be
       -0.16444741 0.1732783 -0.19235444 -0.25808376
000260 0f a9 14 be 3a 7c d0 3d 26 89 93 3e 21 c9 5f bd
       -0.14517616 0.10179944 0.28815573 -0.05463517
000270 6a 69 81 be 78 3d 30 be ad bb 35 3e 8c d7 32 be
       -0.25275737 -0.17210948 0.17747374 -0.17465037
000280 0e cc 50 3e 9a 1c 22 3e 24 95 5f be 7b 24 06 be
       0.2039034 0.15831223 -0.21834236 -0.13099854
000290 25 92 80 3e 3c 7a 25 3e 54 95 d3 3d 96 86 07 3e
       0.251115 0.1615991 0.103312165 0.13234934
0002a0 fc 31 e7 bd 7f 26 d6 3d 00 82 39 3e ff fb f7 bd
       -0.11288831 0.10456561 0.18115997 -0.12108611
0002b0 e3 ba 68 3e 18 e9 f8 3d f3 ad 11 3e 4f c8 a9 3d
       0.22727542 0.12153834 0.14226513 0.08290159
0002c0 c9 69 0c 3e 72 05 04 be 4a e5 6a 3e 3e d0 e4 bd
       0.13712229 -0.12892702 0.2293903 -0.111725315
0002d0 c3 19 40 be dd 79 69 3e a5 c4 fa bd 16 d0 6a be
       -0.18759827 0.22800393 -0.12244538 -0.22930941
0002e0 f9 ff 3d 3e f3 1a f1 3d 12 dc 96 be af db 69 be
       0.18554677 0.11772718 -0.29464775 -0.22837709
0002f0 a1 6e 82 3e 68 b8 51 3e be 51 05 be c3 68 35 3e
       0.25475028 0.20480502 -0.13019463 0.17715745
000300 ad d1 76 3e 5b b5 3e 3e 57 ca da 3d 2d 9a 14 be
       0.24103422 0.18623869 0.106831245 -0.14511938
000310 88 dd c8 3d 64 1b 4f be 67 6b 61 be 56 ce da 3d
       0.09807879 -0.20225292 -0.22013627 0.10683887
000320 36 e3 56 3e 7d 0e c3 3d 8e 2d 48 3e cd 04 3e 3e
       0.20985112 0.09524248 0.19548628 0.18556519
000330 e3 47 2d be 57 2a d8 3d 53 d9 3a be 5b 9b 34 be
       -0.16921954 0.10554951 -0.18246965 -0.17637388
000340 30 b9 58 3e 0d c0 fa bd f8 c3 69 be a0 f0 75 3e
       0.21164393 -0.12243662 -0.22828662 0.24017572
000350 fd ba 67 3e 0f 0b 34 3e 66 a9 68 3e e3 24 43 be
       0.22629924 0.17582344 0.2272087 -0.1905704
000360 7a ff 2c 3e 4c 52 27 3e 9c d1 23 be 51 3c 55 3e
       0.16894332 0.16339988 -0.15997928 0.2082379
000370 d6 3e 00 be 3d 4b 48 3e 15 16 f8 bd f9 22 2d be
       -0.1252397 0.19559951 -0.12113587 -0.16907872
000380 dd ae 50 3e 3f f0 fe 3d 89 e3 45 3e 00 1a 33 be
       0.20379205 0.12448167 0.19325079 -0.17490387
000390 4d ba fe 3d 3a 5c 77 3e 48 4b 81 3e 7d 35 67 3e
       0.12437878 0.24156275 0.25252748 0.22578998
0003a0 59 6d 5d 3e a3 c7 3b be 89 7f e3 3d 1f a7 80 be
       0.21623744 -0.18337874 0.1110831 -0.25127503
0003b0 b9 6e 82 3e 98 3f c9 bd 33 12 56 be b5 dd 2a be
       0.254751 -0.09826583 -0.2090538 -0.16686137
0003c0 66 1e 45 3e 05 77 a6 bd 0c f9 c6 3d 54 03 48 3e
       0.19249877 -0.0812817 0.09715471 0.1953252
0003d0 e9 b9 30 3e b3 fd f3 bd 84 b9 56 3e 9a 58 f3 3d
       0.17258419 -0.11913624 0.20969206 0.11882134
0003e0 9c 72 3d be 96 15 1d 3e bd 43 27 3e 6e ea 2a be
       -0.18500751 0.15340266 0.16334434 -0.1669099
0003f0 c5 c3 33 be 48 8f 2d be 60 a3 0f 3e 88 3c 49 be
       -0.17555149 -0.16949189 0.14027166 -0.19651997

actor.6.bias f4 [3]
000000 91 37 31 be 9b f6 33 bd b7 b5 31 3e
       -0.17306353 -0.043936353 0.17354475

critic.0.weight f4 [256, 2]
000000 21 02 9a 3d 48 98 78 be 8f f9 18 3f 71 a7 e7 be
       0.07519937 -0.2427684 0.59755796 -0.45244935
000010 cf 8f 05 3f 40 e6 36 3c 7a 96 ca 3e a6 9e 65 be
       0.5217256 0.011163294 0.3956793 -0.22423801
000020 2a 25 99 3e ec db 4c 3e 90 ae b2 3e 32 00 f5 be
       0.29911166 0.20005769 0.34898806 -0.47851712
000030 a0 1d 0b 3e 50 2b 28 bd 81 f2 34 bf 73 6e c6 be
       0.1358552 -0.04105693 -0.7068253 -0.3875614
000040 19 73 30 bf 30 de 26 bf bb 20 1d bd 52 6c 2f 3e
       -0.68925625 -0.6518278 -0.038361292 0.17131165
000050 c2 c2 64 be ac f0 cc be df 87 81 be 97 ea 25 bf
       -0.22339919 -0.40027368 -0.25298974 -0.6481108
000060 40 6f 33 be 5e f9 14 bf 7b 6e ef be c1 1b 18 3f
       -0.17522907 -0.58193004 -0.46763977 0.5941735
000070 77 26 b2 3c 37 69 51 3e c7 95 32 3f bc 2a 01 bf
       0.021746857 0.20450293 0.6975979 -0.5045583
000080 dd 26 ef 3e 45 a6 1d bf aa 63 20 bf 47 5c 2e 3f
       0.46709338 -0.6158183 -0.62652075 0.68109554
000090 3f f7 d0 be c3 f5 ca be 61 7e 64 3e b5 db 07 bf
       -0.40813634 -0.39640626 0.22313835 -0.5306962
0000a0 ba d8 d6 3e 78 96 76 be 88 e0 cb bd 0e 35 1b 3e
       0.41962224 -0.24080837 -0.09954935 0.15156958
0000b0 02 06 b4 3e 9e f8 dc 3e 18 42 30 be f2 ea f2 be
       0.35160834 0.4315843 -0.17212713 -0.47444874
0000c0 9c 31 cf 3d dc 4e 53 bd ee d7 57 be c3 5c b7 be
       0.10116884 -0.051588878 -0.21078464 -0.3581296
0000d0 8b f0 80 3e 21 ca 0e bf 7c 88 91 3e a0 b2 ce 3d
       0.2518352 -0.55777174 0.28424442 0.10092664
0000e0 72 56 15 bf 91 4e b1 be a9 98 2d 3f 8c a6 bd be
       -0.5833503 -0.34630254 0.67811066 -0.37041128
0000f0 8c 9d 9d be db ae b9 be 9e 07 d2 3e 38 1a e8 bd
       -0.3078426 -0.36266217 0.41021436 -0.11333126
000100 a9 3b 09 bf 90 0a 0a be 3a 50 c7 be 8e 9d 96 3e
       -0.5360666 -0.13480592 -0.38928396 0.2941708
000110 96 f1 d7 3e 3d dc cf be 0a 92 4b 3a 22 0c 4d 3d
       0.42176503 -0.40597716 0.0007765597 0.0500604
000120 db e9 7b 3e e1 f4 99 be 9d 31 32 3f 0f e3 b1 be
       0.24600928 -0.3006964 0.69606954 -0.34743544
000130 ee ff df 3e a0 6b d2 bc 58 7d 0a 3e 2a 54 d9 3e
       0.43749946 -0.025686085 0.13524377 0.42447025
000140 0f 3a 57 3d b0 e4 7f 3e 7b cd 26 bf 37 ab 12 bf
       0.052545603 0.24989581 -0.6515729 -0.57292503
000150 b4 57 02 be 8a cd 9d be 5e 93 6f be 14 50 2d be
       -0.12728769 -0.30820876 -0.2339606 -0.16925079
000160 99 9a d6 bd 31 cd cb 3e ce 0a a5 3e 55 2f 2d 3f
       -0.10478706 0.39804986 0.32234806 0.6765035
000170 30 71 a0 bd f0 c0 f4 be 82 55 8a be de f4 9c be
       -0.07834089 -0.4780345 -0.27018362 -0.3065557
000180 d8 b3 3e 3e 98 e5 6c 3e 1c 09 63 be 76 b4 d4 3e
       0.18623292 0.23134458 -0.22171444 0.4154393
000190 ec 76 11 3e b0 e1 3b bd 77 fc de be dc 7c f0 be
       0.14205521 -0.04586953 -0.4355199 -0.4697026
0001a0 d3 a4 c7 3d 03 a1 c9 3e 1e 47 29 be c6 ff 29 3f
       0.097482346 0.39380655 -0.16531035 0.66405904
0001b0 a8 08 2e 3e 30 b4 be bd 77 12 0f 3e ff 03 34 bf
       0.1699549 -0.09311712 0.13971888 -0.703186
0001c0 3b be 2a 3f 68 36 4d be ae 36 f5 3e aa 75 f5 3e
       0.6669652 -0.20040286 0.4789328 0.47941333
0001d0 d6 1b a7 3e e0 f6 1a bd be 2b e7 be 52 ec 11 bf
       0.32638425 -0.037833095 -0.4515056 -0.5700122
0001e0 9d 51 0f 3f a0 2e 64 3d 13 eb 10 bf d4 61 ae be
       0.55983907 0.055708528 -0.56608695 -0.34059012
0001f0 95 b1 26 3f ec d7 00 3e d2 76 b7 3e 00 78 e9 bb
       0.6511472 0.12582368 0.3583284 -0.007124901
000200 61 96 99 bd d2 3f 35 bf 2b 60 07 3f 55 a2 21 3f
       -0.074993856 -0.7080051 0.52881116 0.63138324
000210 cd dc 00 3f 05 1a db be 8b 33 1f 3f 1e 19 f4 3e
       0.50336915 -0.4279329 0.62188023 0.47675413
000220 5d 8a 5b 3c 92 09 b8 3e 01 e7 c7 3d 2f 5c 8d 3e
       0.013399688 0.35944802 0.097608574 0.27609393
000230 6b 96 67 bd 1d 7a 99 3e cd 04 2c 3f bd fa 21 3f
       -0.056539934 0.29975978 0.67194825 0.6327322
000240 75 29 fe be 7c 6c 45 be a8 cd f0 be 82 70 ea 3e
       -0.49641004 -0.19279665 -0.47031903 0.45788962
000250 d8 74 83 3e 68 39 cf 3d 6b 15 32 bf bd 14 11 bf
       0.25675082 0.10118371 -0.6956393 -0.5667227
000260 1f eb 17 3f 50 9a 58 3e f4 fe 89 bc b3 cf be be
       0.5934314 0.21152616 -0.016845204 -0.37267837
000270 08 de af be 3e d2 cc 3e 6f da 28 3e 29 7f 17 bf
       -0.34349084 0.40004152 0.16489576 -0.59178406
000280 37 b5 12 bf cc d4 05 3e 08 ab 78 be a3 2b 26 bf
       -0.5730776 0.13069457 -0.24283993 -0.64910334
000290 5d 4e 33 3f d4 7d 24 be f7 51 2c 3f 63 f9 0d bf
       0.7004145 -0.16063625 0.6731257 -0.5545866
0002a0 c4 8e c2 be fc 6b 6c 3e 86 50 d8 3e 08 bf 6b 3e
       -0.37999547 0.23088068 0.42248935 0.23022091
0002b0 ca 10 b8 be 35 14 00 3f 67 00 84 3d 45 09 23 bd
       -0.3595031 0.50030833 0.06445389 -0.039803762
0002c0 d2 d7 d7 be d2 3c 62 be 14 d9 6d 3e b4 ef 2e be
       -0.42156845 -0.22093514 0.2322734 -0.17083627
0002d0 b9 95 1d 3e 77 e6 1d be f2 14 0d bf fb 9d 27 3f
       0.15389146 -0.15419947 -0.55110085 0.65475434
0002e0 ea c4 a3 3d 36 b1 15 bf 4c 53 ae be 70 7d a0 3d
       0.07996543 -0.5847353 -0.34047925 0.07836425
0002f0 32 90 6a be 51 7d 33 bf 81 52 6f be 87 89 17 3f
       -0.22906569 -0.7011309 -0.23371316 0.59194225
000300 73 c5 1b 3f 3c b7 1f 3e 91 ee 38 be 7e 15 de 3e
       0.6084816 0.15597242 -0.18059756 0.43375772
000310 29 ee 14 3f 00 ae 0f bc 47 ce 15 3f 70 93 aa bd
       0.58175904 -0.008769512 0.5851788 -0.08328903
000320 bc 81 5b be bb 69 2c bf a8 3b 9f be 1e a3 f5 be
       -0.21436208 -0.6734883 -0.31100202 -0.4797601
000330 08 51 bd be de 29 c3 be 7e d4 9f 3e 16 b0 57 be
       -0.36975884 -0.3811788 0.31216806 -0.21063265
000340 54 2f 51 3e d9 8a 02 bf 88 b9 48 3e f0 9f 02 3d
       0.2042821 -0.50993115 0.19602025 0.03189081
000350 17 b8 83 3e 16 11 fd be 60 e0 0f be 98 b5 8b 3d
       0.25726387 -0.49427098 -0.14050436 0.06821746
000360 5a ae f7 be d8 0d 2a be 2f c5 20 bf 70 43 28 3e
       -0.48375207 -0.16606843 -0.6280088 0.16431975
000370 5b 80 06 3f e6 c5 e2 3e 68 04 2f bf 7c 87 0e 3e
       0.52539605 0.4429161 -0.683661 0.1391887
000380 5f 84 c4 be 4c bb 4a 3e c5 eb 27 be ec 66 df be
       -0.3838224 0.1979801 -0.16398533 -0.4363321
000390 3d d1 d4 be 01 c5 ea be 6f 8a 01 3f 80 91 80 bc
       -0.41565886 -0.45853427 0.5060186 -0.01569438
0003a0 48 7f 4a be fb eb 0e bf ef 98 2b 3f 6c 3d 7a 3e
       -0.19775116 -0.5582883 0.67030233 0.24437493
0003b0 bc f2 94 3e c8 43 e4 3d 94 55 29 bf 98 12 05 3e
       0.29091442 0.11145741 -0.66146207 0.12995374
0003c0 c4 62 03 3e 20 85 65 bd ba 5d 22 be be 86 29 3e
       0.12830645 -0.05603516 -0.15856066 0.16555306
0003d0 6e 80 78 be bb 37 99 be 9e aa 8d be 9d 6a c6 3e
       -0.24267742 -0.2992533 -0.27669233 0.38753214
0003e0 2a 53 8b 3e f3 3c 2c bf 69 ce bf be fe b6 bf 3e
       0.27211887 -0.672805 -0.37462166 0.374443
0003f0 53 af 0c 3e 68 1b 28 bf df b7 dd be ea 60 22 bf
       0.13738756 -0.6566682 -0.43304345 -0.6342913

critic.0.bias f4 [256]
000000 0c 35 3b be ce 8f 02 bf ce 52 89 3e 5e 4a ca 3e
       -0.18281955 -0.5100068 0.26820987 0.39509863
000010 c3 73 20 bf 64 ef 7f 3e 5c 61 2d be 41 83 0c 3f
       -0.6267664 0.24993664 -0.16931671 0.5488778
000020 88 a6 51 be ed b9 20 3e 41 93 ce be e0 eb 10 3d
       -0.20473683 0.15695925 -0.4034672 0.035381198
000030 b0 f2 79 be ea d2 a8 3e 9b fb 55 be ea e1 88 3e
       -0.24408984 0.32973415 -0.20896761 0.2673486
000040 03 26 13 bd ca 71 e5 be d1 be 24 3f f2 9d cb 3e
       -0.035924923 -0.44813377 0.6435366 0.3976894
000050 36 6c b9 be a4 68 c3 3e 1b 31 92 be 82 27 a2 be
       -0.3621537 0.38165772 -0.2855309 -0.31670767
000060 39 ad d7 3e 67 54 82 be de 28 e0 3e 26 8f e6 3e
       0.42124346 -0.2545502 0.4378118 0.4503109
000070 be 23 6a be a8 3b 2f be 6c 70 dc be 93 e0 2c bf
       -0.22865197 -0.17112601 -0.4305452 -0.67530173
000080 fa ef c0 3e b2 33 b9 be b0 8a 11 bd 49 12 21 bf
       0.37683088 -0.36172253 -0.035532653 -0.62918526
000090 0e c9 e7 3e 93 4c 2e bf 05 bb b3 be e6 58 b8 3e
       0.4527058 -0.68085593 -0.35103622 0.36005324
0000a0 3d a5 38 3f 80 7a f8 3d d8 fb 21 bf 07 3f de be
       0.72127134 0.1213274 -0.6327491 -0.4340746
0000b0 16 5f b1 3d 36 21 1b bf 80 3c 61 3e f8 72 be be
       0.08660714 -0.6059755 0.21995735 -0.3719709
0000c0 1c 05 3c 3e c8 2e 18 be 0f 7b e3 be 48 f7 26 3e
       0.18361324 -0.14861596 -0.44429824 0.16305268
0000d0 e8 76 0d 3f da ce a4 3e b8 dc f7 bd f4 64 9c bd
       0.5525956 0.32189065 -0.12102646 -0.07636443
0000e0 9c 95 75 3e de 09 b0 3e 84 2e 95 be ae 9b e4 be
       0.23982853 0.34382528 -0.2913705 -0.44650024
0000f0 5a 03 f2 3e 84 c8 7f be 50 a5 f1 3d ff a3 2e bf
       0.47268182 -0.24978834 0.11799109 -0.6821899
000100 8b 8c 12 bf 5d 21 12 bf 06 80 c4 3e 8b af 02 3f
       -0.572457 -0.5708216 0.38378924 0.5104911
000110 35 47 09 bf 1f 6b 24 3f 46 3f a4 be d5 f7 e5 be
       -0.5362428 0.64225954 -0.32079524 -0.44915643
000120 d6 52 bb 3e 0a 00 d0 3e f0 87 05 bd 87 45 91 be
       0.36586636 0.4062503 -0.032600343 -0.28373358
000130 87 5f 08 3f 31 b3 c8 be 79 21 e0 be 25 1f 7b bc
       0.53270763 -0.39199212 -0.43775538 -0.01532725
000140 ca 10 d5 be a3 27 24 bf e1 17 93 be 97 ad 1f bf
       -0.41614372 -0.6412298 -0.28729156 -0.6237425
000150 3c ba 2c be 4a 9e 87 be 67 ea 2e bf 82 f3 b4 3d
       -0.16867918 -0.26487952 -0.6832642 0.08835508
000160 08 4d 2b be 30 dc f0 be be c8 be 3e a0 14 1e be
       -0.16728604 -0.4704299 0.3726253 -0.15437555
000170 fc 80 fd 3c a8 f5 9f be c6 b3 db 3e 14 cf 27 bd
       0.030945294 -0.31242108 0.42910594 -0.04096897
000180 40 ac 73 be 87 03 87 3e 74 06 29 bf 88 05 a9 3d
       -0.23796177 0.2636988 -0.6602547 0.08253008
000190 f6 4e fc 3e f7 60 0b 3f aa 8c 69 be a0 de 36 bd
       0.49278992 0.5444483 -0.22807565 -0.044645905
0001a0 13 e3 f9 be 00 b7 7b 3e 72 0b b0 3e 46 03 c1 3e
       -0.48806056 0.24581528 0.34383732 0.3769781
0001b0 35 b3 26 3f 51 71 28 bf 04 ce 1e 3e 60 f4 86 3c
       0.651172 -0.6579791 0.15508276 0.016473949
0001c0 d0 39 27 3d 9a 7f cb 3e 10 d4 85 be 3a 70 18 bf
       0.04082662 0.3974579 -0.26138353 -0.59546244
0001d0 dd 77 9c be 0c d4 6f 3e 60 ea 8a 3d 3b 2b 2d bf
       -0.30560198 0.23420733 0.06782985 -0.6764409
0001e0 21 46 04 3f 3c d3 08 3e 6f df 2d 3f 93 a8 eb 3e
       0.5166951 0.1336183 0.6791906 0.4602705
0001f0 c4 12 bf 3e d5 4e 2c 3f e4 d8 c3 3b e6 c6 f5 3e
       0.37319005 0.6730779 0.005976783 0.4800331
000200 26 20 2b bf c6 ed a6 3e b2 3d 0d bf 2b 10 8b bd
       -0.6684593 0.32603282 -0.55172265 -0.06790193
000210 eb 49 18 3f 50 e6 33 3e ea 55 c0 3e 77 35 8b be
       0.5948779 0.17568326 0.37565547 -0.27189228
000220 a2 ac b8 3e 75 b7 2d 3f 9d 04 0c 3f f2 bb ff 3e
       0.36069208 0.6785806 0.5469454 0.49948078
000230 03 1b fd be ae da ba be 29 d2 2b 3f 2b fd 98 be
       -0.4943467 -0.36494964 0.67117554 -0.29880652
000240 6c 7f 58 3e 54 a8 58 be 80 ed ca 3b 06 6e f4 3e
       0.21142358 -0.21157962 0.006192863 0.4774019
000250 78 24 da 3d fa d1 8d 3e ef 1f 16 3f 80 f7 2b 3e
       0.10651487 0.27699262 0.58642477 0.16793633
000260 e8 94 9d be 00 86 ed bd a7 49 05 3f 80 8c e8 be
       -0.3077767 -0.11597824 0.5206551 -0.45419693
000270 ba c4 15 bf c9 be 10 bf fc 44 6d 3e 90 ac 02 3e
       -0.58503306 -0.56541115 0.23170847 0.1276114
000280 0d 95 79 bc 43 08 13 3f 85 0e 1f 3f 35 e9 3a bf
       -0.01523329 0.5743448 0.6213153 -0.73012096
000290 80 3b c5 3d 38 d8 f4 be d5 e5 f3 3d e9 b0 b6 3d
       0.09630489 -0.47821212 0.11909071 0.08920462
0002a0 a8 82 85 be a6 fc 21 bf 3d 07 18 3f 8e 22 d1 be
       -0.26076245 -0.63276136 0.59386045 -0.40846676
0002b0 89 4b 9a 3d 5b d4 30 bf 99 8c 1f 3f 92 4c da be
       0.075339384 -0.6907403 0.6232391 -0.42636544
0002c0 d9 4a 7f be 31 23 bd 3e 7d 2c 17 3f 0f 30 ee be
       -0.24930896 0.3694091 0.5905226 -0.4652104
0002d0 ba 78 2c bd 04 98 2f bf 66 2d db be 50 48 54 be
       -0.04210732 -0.6859133 -0.42808074 -0.2073071
0002e0 b8 0f eb 3d bc 47 21 3f f9 d4 a9 be 5d f2 cc 3e
       0.114776075 0.6300008 -0.33170298 0.40028659
0002f0 44 69 21 bf 93 6b e0 be de 75 06 bf 7c ed b5 3e
       -0.6305125 -0.43832073 -0.525236 0.3553275
000300 b0 91 5a bd a9 8e de bd b0 dc 05 3d b2 c7 3a bd
       -0.053361595 -0.10867054 0.032681167 -0.0456006
000310 12 b7 26 bf 4d 5e 00 bf 14 a0 86 3e 4b 89 12 3f
       -0.65123093 -0.5014389 0.26294005 0.5724074
000320 d8 35 b0 bd ee d5 c6 be dc 0e 19 3f 48 2c 54 3e
       -0.0860402 -0.3883509 0.597883 0.20720017
000330 ec a1 c9 be 7c 2e 71 3e c6 78 99 3e f9 1a d1 be
       -0.3938135 0.23552889 0.29974955 -0.4084089
000340 38 5e cf be 60 06 5d 3e 8b 21 1b bf 3e 95 b1 3e
       -0.4050157 0.21584463 -0.6059806 0.34684175
000350 b1 05 e2 bd 6b 7e eb be c8 ce d7 be cf e7 ed 3e
       -0.11036242 -0.45994887 -0.4214995 0.46465918
000360 8b a8 30 be 20 36 d9 bc 91 e1 11 be 00 38 01 be
       -0.17251794 -0.026515067 -0.14246203 -0.12619019
000370 f8 1f b6 3d 37 b3 19 be b0 a8 21 3d 33 12 30 3f
       0.08892816 -0.15009771 0.039467514 0.6877777
000380 a4 e8 28 bf 00 4c 5c 3e ab b6 12 3f d5 b4 22 3f
       -0.6597998 0.21513367 0.5730998 0.6355718
000390 11 57 29 3e 46 4e d9 3e fa 37 b8 be 00 06 2c bf
       0.1653712 0.4244253 -0.35980207 -0.67196655
0003a0 14 65 38 be 48 b6 0f 3f 14 57 c1 be dc f4 11 bf
       -0.18007308 0.56137514 -0.37761748 -0.5701425
0003b0 8c d4 88 3e ca 29 ca 3e 72 4c 07 bf e0 99 44 be
       0.2672466 0.39485008 -0.5285102 -0.19199324
0003c0 ae bf 9a 3e 41 09 98 be 20 e7 81 3c 2b 36 2d bf
       0.30224365 -0.2969456 0.01585728 -0.6766078
0003d0 b6 ae a4 be 22 32 81 3e 28 ef 19 be 3c f5 26 bf
       -0.32164544 0.2523356 -0.15032637 -0.6521795
0003e0 7f 74 ea be e6 94 fc 3e 50 55 12 3f f8 f5 8c be
       -0.45792004 0.4933235 0.57161427 -0.2753141
0003f0 9a b3 b5 3e 06 38 c4 3e 84 6e 8d be 5d 57 a3 3e
       0.35488588 0.38323992 -0.2762338 0.3190259
